Metric_Embedding/model.pth (torch, 79809 bytes, 10 tensors)

feature_layers.0.conv.weight f4 [32, 1, 3, 3]
0	0x3b1917a2	0.0023360034
1	0x3d83b3b7	0.06430762
2	0xbe62847c	-0.22120851
3	0x3b2710af	0.0025492122
4	0xbc25ed20	-0.010127336
5	0xbe5c9b8f	-0.21543716
6	0xbe492c01	-0.19645692
7	0x3dddf94e	0.10838567
8	0xbde79a81	-0.11308766
9	0x3b4e0bc3	0.0031440116
10	0x3e078889	0.13235678
11	0x3ea30089	0.31836346
12	0x3e570ce3	0.2100101
13	0xbe34b7f0	-0.17648292
14	0x3bccc06a	0.0062485235
15	0x3e41eb79	0.18937482
16	0x3e87276e	0.2639727
17	0xbe806ec1	-0.250845
18	0x3dc96391	0.09833444
19	0xbe88eb8a	-0.26742202
20	0x3d994547	0.07483917
21	0x3e211cf0	0.15733695
22	0xbda2fdb0	-0.07958543
23	0x3e64ade6	0.22331962
24	0xbce6e042	-0.028183106
25	0x3da2b5be	0.07944821
26	0xbccec815	-0.02524189
27	0xbcab5aab	-0.020917257
28	0xbea35739	-0.31902483
29	0x3e0c2981	0.13687707
30	0x3ea5127b	0.32240662
31	0xbe565e71	-0.20934464
32	0xbe08e837	-0.13369833
33	0x3dec607c	0.115418404
34	0x3e04e453	0.12977724
35	0xbd7798f1	-0.06044859
36	0xbe8a0482	-0.26956564
37	0xbc983ebb	-0.0185846
38	0xbe7f0c45	-0.24907024
39	0xbe0f4c1f	-0.13993882
40	0x3d938092	0.07202257
41	0xbe80c313	-0.2514883
42	0x3db46b3a	0.08809514
43	0x3e9a5017	0.3013923
44	0xbe95395c	-0.29145324
45	0x3e37c67e	0.17946813
46	0x3dab99e2	0.0837896
47	0x3d7c93e6	0.061664484
48	0xbde01e82	-0.10943319
49	0xbe84d9b8	-0.25947356
50	0x3e98f16f	0.298717
51	0x3e181235	0.14850695
52	0xbc8f5ba1	-0.017499747
53	0xbe8f8bc9	-0.28036335
54	0x3e52c6e9	0.2058369
55	0xbe8d1644	-0.2755605
56	0xbe318c05	-0.1733857
57	0xbe767f8e	-0.24072096
58	0xbe908eb9	-0.2823389
59	0x3db90adc	0.090352744
60	0x3e33db78	0.1756419
61	0x3e2b6411	0.16737391
62	0xbd10a4bf	-0.035313364
63	0x3d85f857	0.06541508
64	0xbcc14b48	-0.023595467
65	0x3e51cd9a	0.20488587
66	0x3e6c2fff	0.23065184
67	0x3e735b6b	0.23765342
68	0x3de7d889	0.11320598
69	0xbe6d3413	-0.23164396
70	0xbe85ae95	-0.26109758
71	0xbe698ec9	-0.22808374
72	0x3d4a142a	0.049335636
73	0x3cae762d	0.021296585
74	0xbc3f43c4	-0.011673871
75	0x3e38a195	0.18030389
76	0xbe918f03	-0.28429422
77	0x3df395c5	0.11893801
78	0x3e11728c	0.14203852
79	0x3db34ef0	0.087552905
80	0x3daad17b	0.083407365
81	0x3e8e87e5	0.27838054
82	0xbe638239	-0.22217645
83	0x3e33d0d2	0.17560127
84	0x3ea84a96	0.32869405
85	0xbe9e0dc0	-0.30869865
86	0xbeaf5472	-0.34244114
87	0x3e7fe277	0.24988733
88	0x3e99beef	0.30028483
89	0xbe39bb5f	-0.18137883
90	0x3dfba5d8	0.122874916
91	0xbdb8d0e3	-0.09024217
92	0x3e173695	0.14766915
93	0x3e12796e	0.14304134
94	0x3d140ea7	0.036146786
95	0x3e856aca	0.26058036
96	0x3e7dfcee	0.24803516
97	0xbe9ad7f8	-0.30242896
98	0xbeb5e51b	-0.35526356
99	0x3e878bab	0.26473746
100	0x3e6627cb	0.22476117
101	0x3b48c91f	0.0030637456
102	0x3c18eca1	0.0093337605
103	0x3d80fffc	0.06298825
104	0x3df0227f	0.117253296
105	0x3dc0b7a6	0.09410028
106	0xbe3c4ffb	-0.18389885
107	0xbe908fed	-0.28234807
108	0xbe0dc46c	-0.1384446
109	0x3e3c10a9	0.1836573
110	0xbcbfdd8e	-0.023421075
111	0xbe20ec2c	-0.15715092
112	0x3e200242	0.15625861
113	0xbd9ade2b	-0.075619064
114	0xbec70313	-0.38869533
115	0x3e5870bd	0.21136756
116	0x3ea1dc2a	0.31613284
117	0xbea35b23	-0.3190547
118	0x3d9f305e	0.07772897
119	0xbe7efe4b	-0.24901693
120	0xbd0d7bc7	-0.03454187
121	0xbd00e11f	-0.031464692
122	0x3e863a0d	0.26216164
123	0xbd5777e2	-0.052604564
124	0xbdfda712	-0.12385382
125	0x3e86b202	0.26307684
126	0xbd0a3035	-0.03373738
127	0xbe20b520	-0.15694094
128	0x3c8c6852	0.017139588
129	0x3d9a9ef4	0.07549849
130	0x3e4a6c89	0.19767965
131	0xbd054495	-0.032536108
132	0xbdabacdd	-0.083825804
133	0xbdc6adca	-0.097011164
134	0xbe8ce359	-0.27517202
135	0x3e8614f1	0.26187852
136	0x3e73b900	0.2380104
137	0xbcdeaccf	-0.027182011
138	0x3e11b765	0.14230116
139	0x3e41b9ee	0.18918583
140	0xbe9dab23	-0.3079463
141	0x3e06ab6c	0.1315133
142	0xbe72b642	-0.23702338
143	0xbe3f11fd	-0.18659206
144	0xbd892470	-0.06696403
145	0xbe9dd887	-0.3082926
146	0x3e683086	0.2267476
147	0xbe3e763f	-0.18599795
148	0xbe65786a	-0.22409216
149	0x3e215c76	0.15757927
150	0xbe46326f	-0.19355176
151	0xbe0c3fc8	-0.13696206
152	0xbd5d4bce	-0.05402737
153	0xbe73c2cd	-0.2380478
154	0x3e10f877	0.14157282
155	0x3e24f2b3	0.16108207
156	0x3d98f7cc	0.074691385
157	0xbd5bc110	-0.053650916
158	0xbe14a48e	-0.14515898
159	0x3e74af92	0.238951
160	0xbe95e06c	-0.29272783
161	0x3e4efa07	0.20212565
162	0x3e36678b	0.17812936
163	0x3ca0786e	0.019588675
164	0x3df78207	0.120853476
165	0x3ea3ff20	0.32030582
166	0xbe748df5	-0.23882277
167	0x3eab9801	0.33514407
168	0xbe93e79f	-0.2888765
169	0xbd37807c	-0.044800267
170	0xbc0cad09	-0.008586177
171	0xbea0175d	-0.31267825
172	0x3e729f1a	0.23693505
173	0x3e32f18b	0.17474954
174	0x3e06f93e	0.13181016
175	0xbe208d62	-0.15678933
176	0xbea6442e	-0.32473892
177	0x3d921a3e	0.071339116
178	0xbdb2a981	-0.087237366
179	0xbeaef5d9	-0.34171942
180	0x3e35faf8	0.17771518
181	0x3cd8c49e	0.026460942
182	0x3d9baa4e	0.076008424
183	0xbea16a17	-0.31526253
184	0xbdc47aa4	-0.09593704
185	0xbe873980	-0.26411057
186	0xbe415f91	-0.18884112
187	0xbe1ecf48	-0.15508759
188	0x3d638462	0.055546172
189	0x3c9037fe	0.017604824
190	0x3c97f9cc	0.01855173
191	0xbe85887e	-0.26080698
192	0x3e5b643d	0.21424957
193	0x3ea54057	0.3227565
194	0x3ea39d87	0.3195612
195	0xbe286270	-0.16443801
196	0xbe6c54b6	-0.2307919
197	0x3e8aa345	0.2707769
198	0x3e71a467	0.23597871
199	0xbcb0b0bb	-0.021568647
200	0x3cfc668e	0.03081062
201	0x3e65b333	0.2243164
202	0x3e199ae0	0.15000486
203	0xbd58dd06	-0.05294516
204	0x3e76acb5	0.2408932
205	0x3e5a2256	0.2130216
206	0xbe658c18	-0.22416723
207	0xbe87643f	-0.2644367
208	0x3d26917a	0.04066608
209	0x3def9c83	0.11699774
210	0x3cbbf59a	0.02294426
211	0xbe72d48e	-0.23713896
212	0x3e6a8709	0.22903074
213	0xbea1ce6b	-0.31602797
214	0xbe6af1fa	-0.22943869
215	0xbe58c775	-0.21169837
216	0xbe3f9902	-0.18710712
217	0xbdeb216c	-0.11480984
218	0x3e32dbf7	0.17466722
219	0x3e7757c9	0.24154581
220	0x3ea90f81	0.3301964
221	0xbe4d5086	-0.20050249
222	0x3e3fda82	0.18735698
223	0xbe3cb8a3	-0.18429808
224	0xbd7bf477	-0.061512437
225	0xbec55510	-0.3854146
226	0xbe8ea2dc	-0.27858627
227	0xbe6b5e81	-0.22985269
228	0x3e005c29	0.12535156
229	0x3e645015	0.22296174
230	0x3e44887d	0.19192691
231	0x3d9bb3df	0.07602667
232	0x3e450f09	0.19244017
233	0xbe960c9b	-0.29306492
234	0xbdfce3af	-0.12348115
235	0xbe8ed3bd	-0.27895918
236	0xbe79478c	-0.24343699
237	0x3e49c37f	0.19703482
238	0x3e962a71	0.29329255
239	0x3e796114	0.24353439
240	0x3e31d86c	0.17367715
241	0xbe140728	-0.14455855
242	0x3e16f9da	0.14743748
243	0x3ea9daec	0.33174837
244	0x3deba073	0.11505213
245	0xbe671ff9	-0.2257079
246	0xbe990e19	-0.29893568
247	0xbe8ff90d	-0.28119698
248	0xbe327455	-0.1742719
249	0xbe1fc533	-0.1560257
250	0x3d7c3df8	0.061582536
251	0x3dbc74c7	0.09201961
252	0x3cf83607	0.0302992
253	0xbea28b92	-0.3174711
254	0x3ea3bfa8	0.3198216
255	0xbe21217d	-0.15735431

feature_layers.0.conv.bias f4 [32]
0	0xbe8798f1	-0.26483873
1	0xbe6fc779	-0.23415937
2	0xbd6041f5	-0.0547504
3	0x3ea056d4	0.31316245
4	0x3e902055	0.28149667
5	0xbe0617b5	-0.13094981
6	0xbe7d061e	-0.24709365
7	0xbe245598	-0.16048276
8	0xbe95c6c1	-0.292532
9	0xbe543808	-0.20724499
10	0x3d88f5c1	0.06687499
11	0x3c3bfff8	0.011474602
12	0x3d624b1e	0.05524742
13	0xbe83cb5c	-0.25741088
14	0xbead2654	-0.33818305
15	0x3d9f519f	0.0777924
16	0x3e986290	0.29762697
17	0xbd7d68cd	-0.061867524
18	0x3e311cab	0.17296092
19	0xbe4bdbe8	-0.19908106
20	0xbdb61383	-0.0889044
21	0xbd1669e4	-0.03672208
22	0xbea3ab97	-0.3196685
23	0xbe9d286f	-0.3069491
24	0xbe889868	-0.26678777
25	0xbeb3cdf5	-0.3511807
26	0xbe1f30f9	-0.15546025
27	0xbdaf5ba9	-0.08562405
28	0xbe9c21e3	-0.30494604
29	0x3e108710	0.14114022
30	0xbe8c55f3	-0.27409324
31	0x3e11d29d	0.14240499

feature_layers.2.norm.weight f4 [32]
0	0x3f845a6c	1.0340095
1	0x3f7d102c	0.988528
2	0x3f76249e	0.96149623
3	0x3f8404e0	1.0313988
4	0x3f826590	1.0187244
5	0x3f7c4034	0.98535466
6	0x3f82e0e4	1.0224881
7	0x3f7e5bd3	0.9935886
8	0x3f81f0a9	1.0151569
9	0x3f7d5b45	0.9896739
10	0x3f7bdacc	0.9838073
11	0x3f77e8ba	0.9683949
12	0x3f79be09	0.97555596
13	0x3f863052	1.0483496
14	0x3f833f81	1.0253755
15	0x3f7d2bcd	0.9889496
16	0x3f756c36	0.9586824
17	0x3f6ed991	0.9330073
18	0x3f819188	1.0122538
19	0x3f7c59f9	0.9857479
20	0x3f869e9a	1.0517151
21	0x3f7ed9e7	0.9955124
22	0x3f77fdbb	0.96871537
23	0x3f88644a	1.0655606
24	0x3f7ad787	0.9798512
25	0x3f79e549	0.97615486
26	0x3f7a25ec	0.97714114
27	0x3f886c29	1.0658008
28	0x3f89aefa	1.0756524
29	0x3f83e71c	1.0304904
30	0x3f83b702	1.0290225
31	0x3f808f13	1.0043663

feature_layers.2.norm.bias f4 [32]
0	0xbd0f2662	-0.034948714
1	0xbc07d11e	-0.0082896035
2	0xbc8d9998	-0.017285153
3	0x3cf35faf	0.029708711
4	0x3d5fb19b	0.054612737
5	0xbba952bc	-0.0051673334
6	0xbc845b95	-0.016156951
7	0x3c597e0c	0.013274681
8	0xbc3b4f32	-0.011432456
9	0x3a86dede	0.0010289808
10	0x3bf9511c	0.007608546
11	0xbb7937d2	-0.0038027656
12	0xbcb509bb	-0.022099366
13	0xbc99f45e	-0.018793281
14	0x3bc5503a	0.0060215266
15	0xbbda996c	-0.0066711213
16	0x3bde9a31	0.0067932834
17	0x3c0320f9	0.008003467
18	0x3c7aca86	0.015307074
19	0x3b777ae7	0.0037762464
20	0x3cb72030	0.022354215
21	0xbbe9d32e	-0.0071357703
22	0xbbc6bc1c	-0.006064905
23	0xbc76d5c7	-0.015065617
24	0xbc90c9c4	-0.017674334
25	0x3b261df3	0.002534744
26	0x3d0adca7	0.033901837
27	0x3baed9bb	0.005336014
28	0xbd0a5c2b	-0.033779304
29	0x3d349214	0.044084623
30	0xbc379ee9	-0.011207321
31	0x3d5c0f26	0.053725384

feature_layers.2.conv.weight f4 [32, 32, 3, 3]
0	0x3d8fa8b2	0.07014598
1	0x3d74c5a8	0.059758812
2	0x3cd0beca	0.0254816
3	0xbd5d77f9	-0.054069493
4	0x3d53af72	0.05168099
5	0x3d28ed3d	0.041241873
6	0xbc4c8128	-0.012481965
7	0xbd4f8d3a	-0.050671794
8	0xbd11c661	-0.03558958
9	0xbd6a8f21	-0.057265405
10	0xbc7c20fa	-0.015388722
11	0x3db5138c	0.08841619
12	0x3d7b2ad0	0.061320126
13	0xbca300c6	-0.01989783
14	0x3c130290	0.008972779
15	0xbd735049	-0.059402738
16	0xbc63e683	-0.013909939
17	0xbd1f25a3	-0.038854253
18	0x3d564928	0.05231586
19	0xbcfebaac	-0.031094871
20	0x3d135d4f	0.035977658
21	0x3d5aefca	0.053451337
22	0xbb72b608	-0.0037034769
23	0xbca0859c	-0.01959496
24	0xbce298f6	-0.027660828
25	0x3d8525da	0.0650136
26	0x3d2dc844	0.042427316
27	0xbd92f9bb	-0.071765386
28	0x3bebe9c2	0.007199497
29	0x3c8f7bdb	0.017515114
30	0xbd26487c	-0.04059647
31	0x3cfac90c	0.030613445
32	0xbd861bba	-0.06548257
33	0x3d0444b9	0.0322921
34	0x3cbf42ca	0.023347277
35	0x3856a54a	5.1175513e-05
36	0xbd9aa9ff	-0.075519554
37	0xbdacdeb7	-0.08440917
38	0xbd3b21b5	-0.045686442
39	0xbd4ab7ba	-0.04949162
40	0xbc72e07f	-0.014824032
41	0xbcab611b	-0.020920327
42	0xbd68f3e5	-0.05687322
43	0xbcc20ae7	-0.02368684
44	0xbd278fb2	-0.040908523
45	0xbdc5f21a	-0.09665318
46	0x3c6116be	0.013738332
47	0x3d5510da	0.052018024
48	0xbc25ce01	-0.010119916
49	0x3c05bc1d	0.0081625255
50	0xbd1a1984	-0.03762199
51	0x3d80e218	0.06293124
52	0xbd20c1f3	-0.039247464
53	0xbc80f2c4	-0.01574076
54	0x3d3c8d1f	0.04603302
55	0xbc92b127	-0.017906738
56	0x3d13fac6	0.036127828
57	0x3c9cf60e	0.019160297
58	0xbc8f2c15	-0.017477075
59	0xbd4a7b54	-0.04943402
60	0xbd9b5c6d	-0.07585988
61	0xbcbc693e	-0.022999402
62	0x3d899fe1	0.067199476
63	0xbd27de99	-0.04098377
64	0xbcf9e5af	-0.03050503
65	0x3b03e4dd	0.0020125427
66	0x3b2e48b3	0.0026593625
67	0x3c59ca28	0.013292827
68	0x3d145f70	0.03622383
69	0xbd8eca91	-0.0697223
70	0x3c9b6ae4	0.018971868
71	0x3c87f1ce	0.016594794
72	0x3c2a6f50	0.0104025155
73	0xbc2a41c9	-0.010391661
74	0x3c0009af	0.007814809
75	0xbc9dabd2	-0.01924697
76	0xbd1d6871	-0.03842968
77	0x3d1e3d32	0.03863258
78	0x3ca657fa	0.020305622
79	0x3d6220ac	0.05520694
80	0x3d1ca4d7	0.03824314
81	0x3d7bc10c	0.0614634
82	0xbccae2f5	-0.024766425
83	0xbd0d380a	-0.03447727
84	0x3c880a18	0.016606376
85	0x3d086299	0.033297155
86	0x3d1cc5c6	0.03827455
87	0x3da598d1	0.08085788
88	0x3d9a68cb	0.07539519
89	0x3c814e45	0.015784392
90	0xbb1800f8	-0.0023193937
91	0x3d70555b	0.05867515
92	0x3da00aa1	0.07814527
93	0xbd4517d6	-0.048118435
94	0x3bf3ea5b	0.007443709
95	0x3c84ede0	0.016226709
96	0xbd7ab4a5	-0.061207432
97	0xbd2f38ea	-0.042778887
98	0xbc61686f	-0.013757809
99	0xbcda9aaa	-0.026685078
100	0x3cf02907	0.029316438
101	0xbd100210	-0.035158217
102	0x3bb9b73e	0.005667596
103	0xbc0a5b6f	-0.008444651
104	0xbd5e245d	-0.054233897
105	0x3c4ceb6d	0.012507302
106	0xbce69671	-0.028147908
107	0xbd35b467	-0.0443615
108	0xbd1e82e4	-0.038699046
109	0xbbedc328	-0.0072559305
110	0xbc9b8d08	-0.018988147
111	0x3c1a7e69	0.009429553
112	0xbc874811	-0.016513856
113	0x3d52f445	0.051502485
114	0x3d748fd9	0.059707496
115	0x3d34b3ea	0.044116892
116	0x3b44e71d	0.003004498
117	0x3d5d6ae7	0.05405703
118	0x3d152023	0.0364076
119	0xbcb6725e	-0.022271331
120	0x3c6cd426	0.014454877
121	0x3d46b457	0.04851183
122	0xbd983c25	-0.07433347
123	0xbd31a672	-0.043371625
124	0xbdad0cd4	-0.084497124
125	0x3c3a5663	0.011373135
126	0x3d400db3	0.046888065
127	0xbc9580a2	-0.018249813
128	0x3bfcd82c	0.0077161994
129	0xbd48a92d	-0.048989464
130	0x3c740d39	0.014895731
131	0xb8a7d826	-8.003441e-05
132	0x3d1fc983	0.039010536
133	0xbc77de32	-0.015128659
134	0x3bfa50c7	0.007639024
135	0xbc9b9efa	-0.018996704
136	0x3d20f53f	0.039296385
137	0x3d4cf7e7	0.050041106
138	0x3d832077	0.064026766
139	0x3d620580	0.055181026
140	0x3cf6da11	0.030133279
141	0xbd8b459c	-0.06800386
142	0xbc896243	-0.016770488
143	0x3cd594a4	0.026071854
144	0xbcfb07cb	-0.030643364
145	0x3c59380a	0.01325799
146	0xbc8ec3ee	-0.01742741
147	0xbbbe6385	-0.0058102035
148	0xbd8e7330	-0.06955564
149	0xbc07ed8d	-0.008296383
150	0x3d0032a4	0.031298295
151	0xbd58f03b	-0.052963477
152	0xbc51f4ae	-0.012814684
153	0xbcfaf834	-0.03063593
154	0x3d2a3fd8	0.041564792
155	0x3d82ff3e	0.0639634
156	0xbd494ac7	-0.04914358
157	0x3a854b24	0.0010169488
158	0x3c80cd1b	0.015722802
159	0x3c97b32a	0.01851805
160	0x3d57f664	0.05272521
161	0x3d31dc4c	0.043422982
162	0xbdc5d7cc	-0.096603006
163	0x3d141429	0.03615204
164	0x3c6889b2	0.014192985
165	0xbd6e6900	-0.058205605
166	0x3cdda42e	0.027055826
167	0xbbc739b6	-0.0060798777
168	0x3d4e966f	0.050436433
169	0xbd0a42d2	-0.03375513
170	0x3bd8ab94	0.0066122506
171	0x3d84e256	0.06488483
172	0xbd1a2ae8	-0.037638575
173	0x3c826c52	0.015920792
174	0x3c8d9db5	0.017287115
175	0xbb2d0b69	-0.0026404506
176	0xbc2dc2d4	-0.010605533
177	0x3d74b795	0.05974539
178	0x3bfc2f5c	0.0076960754
179	0x3d9b47bc	0.075820416
180	0xbd6e109b	-0.058121305
181	0xba977572	-0.0011555387
182	0x3b3ffd8c	0.0029295413
183	0xbdd18f7c	-0.102324456
184	0xbcd3b261	-0.025841894
185	0xbce48986	-0.027897608
186	0xbdb732e5	-0.08945254
187	0xbcc3af52	-0.02388731
188	0x3c57ea8f	0.013178482
189	0x3c2f8a94	0.010714192
190	0xbd406e83	-0.046980392
191	0xbbc15857	-0.0059004235
192	0x3ce46c7f	0.027883766
193	0x3c96b541	0.018396975
194	0xbb71e655	-0.003691097
195	0x3b83ed93	0.004026124
196	0xbb8c5961	-0.0042831157
197	0x3d739478	0.059467763
198	0xbc69ee40	-0.014277995
199	0xbd077314	-0.03306873
200	0x3d6b1f76	0.05740305
201	0x3caa5c20	0.020795882
202	0x3d271c16	0.04079827
203	0xbd5e3040	-0.054245234
204	0x3c914855	0.017734686
205	0xbd4ff689	-0.050772224
206	0xbc7c5226	-0.015400445
207	0xbd48dfbe	-0.049041502
208	0xbd8b5dec	-0.068050236
209	0xbb411c7a	-0.0029466436
210	0x3c42aa90	0.011881486
211	0x3d200500	0.03906727
212	0x3a4e4a32	0.00078693323
213	0x3d05b9a9	0.032647762
214	0x3d069066	0.032852553
215	0xbc67ae94	-0.014140744
216	0x3d9c7ef0	0.07641399
217	0x3dc50243	0.09619572
218	0x3d726abf	0.059183832
219	0xbb9e33d4	-0.0048279557
220	0x3d1829cc	0.037149236
221	0x3d10f64d	0.03539114
222	0x3a3af31c	0.0007131563
223	0xbd23653e	-0.039891474
224	0xbd32f3b7	-0.043689456
225	0x3d407960	0.046990752
226	0xbb719ca3	-0.0036867044
227	0xbc8c0b43	-0.017095214
228	0xbcd23dbc	-0.025664203
229	0xbc3cbf1e	-0.011520175
230	0x39cdefb3	0.00039279237
231	0xbda81de6	-0.08208828
232	0xbc7a0867	-0.015260792
233	0xbb3c89e9	-0.0028768724
234	0x3c8d14e2	0.017221872
235	0xbd0d9eb8	-0.034575194
236	0xbc542eb2	-0.012950586
237	0xbb403cd7	-0.0029333138
238	0xbd40a9d7	-0.047036972
239	0x3d29a565	0.0414175
240	0x3b423ea3	0.0029639385
241	0x3c23bb6e	0.009993417
242	0x3d870c0c	0.06594095
243	0x3c97b99b	0.01852112
244	0x3db203be	0.0869212
245	0x3d3f1281	0.046648506
246	0xbd8b26dd	-0.06794522
247	0x3c703d98	0.014663123
248	0xbd3cd6c9	-0.046103273
249	0xbd092f66	-0.03349247
250	0xbdd70a51	-0.105000146
251	0xbd1cdd41	-0.03829694
252	0x3a46bbb1	0.0007581069
253	0xbdae1452	-0.084999695
254	0x39cc1c6a	0.00038931082
255	0x3c9860af	0.01860079

feature_layers.2.conv.bias f4 [32]
0	0x3d13325d	0.035936702
1	0xbd656e84	-0.0560136
2	0x3c416434	0.011803675
3	0xbb4d9a4f	-0.0031372493
4	0xbd5bb1c7	-0.05363634
5	0xbd770245	-0.0603049
6	0x3c7d405b	0.015457238
7	0xbc326a5a	-0.010889614
8	0x3c94ecf1	0.018179389
9	0x3bf845e0	0.007576689
10	0xbc232c79	-0.009959334
11	0xbcc6f48d	-0.024286533
12	0xbc8e5b28	-0.017377451
13	0xbc6ee147	-0.0145800775
14	0xbd85d30b	-0.06534394
15	0x3c272421	0.010201485
16	0xbc4ae319	-0.012383246
17	0xbd2d95a6	-0.042379044
18	0x3cbf8133	0.023377037
19	0x3c5e6a63	0.013575169
20	0xbd689896	-0.056786142
21	0xbc50e4fb	-0.012749906
22	0xbc04a193	-0.008095163
23	0xbc8bdec8	-0.017074004
24	0xbd715554	-0.058919266
25	0x3d61c196	0.05511626
26	0xbd055b51	-0.03255779
27	0xbd21feeb	-0.03954975
28	0xbd923abd	-0.0714011
29	0xbca2b56e	-0.019861903
30	0xbdb7768b	-0.08958157
31	0xbd37dfac	-0.044891044

feature_layers.4.norm.weight f4 [32]
0	0x3f95d65e	1.1706045
1	0x3f9452f9	1.1587821
2	0x3f921cb1	1.1415006
3	0x3f93828b	1.1524214
4	0x3f8d8f6e	1.1059396
5	0x3f926a64	1.1438718
6	0x3f92f85a	1.1482041
7	0x3f944e3a	1.1586373
8	0x3f9dfe75	1.2343279
9	0x3f9d0488	1.2267008
10	0x3f9b5f2a	1.2138417
11	0x3f95afe4	1.1694303
12	0x3f94bd8a	1.1620343
13	0x3f9424ff	1.157379
14	0x3f911a0f	1.1336077
15	0x3f9c973c	1.2233653
16	0x3f920e43	1.1410602
17	0x3f8f50b8	1.1196508
18	0x3f90dd47	1.1317528
19	0x3f914ff2	1.1352522
20	0x3f8e8fc3	1.1137623
21	0x3f92e547	1.147622
22	0x3f901fac	1.1259665
23	0x3f99c9cc	1.2014709
24	0x3f8d0514	1.1017175
25	0x3f901918	1.1257658
26	0x3f90f24d	1.1323944
27	0x3f91f367	1.1402406
28	0x3f976b97	1.1829709
29	0x3f90eda7	1.1322526
30	0x3f93c26b	1.1543707
31	0x3f9312f9	1.1490165

feature_layers.4.norm.bias f4 [32]
0	0x3d3216f5	0.043478925
1	0x3e457a1d	0.19284864
2	0x3de2fe26	0.11083631
3	0xbe23f332	-0.1601074
4	0xbe1b2bf0	-0.1515348
5	0xbe1ffc6f	-0.1562364
6	0x3e070c33	0.13188247
7	0xbe183fae	-0.14868042
8	0x3d7cab36	0.061686717
9	0x3dd4eb08	0.10396391
10	0xbd839e01	-0.06426621
11	0xbdb1f435	-0.08689157
12	0xbc184d4a	-0.009295771
13	0xbdd4c732	-0.10389556
14	0xbd3e235d	-0.046420444
15	0x3dd0c4ad	0.10193763
16	0xbe14fb50	-0.14548993
17	0xbe2ad76b	-0.16683738
18	0x3e00327f	0.12519263
19	0x3e02200a	0.12707534
20	0xbd8d7a7d	-0.069081284
21	0xbe4b6ed3	-0.19866495
22	0x3e1468d2	0.14493111
23	0xbca93e0e	-0.020659473
24	0x3da77a6f	0.08177649
25	0x3e38ff01	0.18066026
26	0xbd816b55	-0.063193
27	0xbdcfeaad	-0.10152183
28	0x3bb9ef07	0.0056742462
29	0x3d6d2526	0.057896756
30	0x3d3fa8de	0.046791904
31	0x3deb20dc	0.11480877

feature_layers.4.conv.weight f4 [32, 32, 3, 3]
0	0xbd28e2fd	-0.041232098
1	0xbc027cf8	-0.007964365
2	0xbcd6ff95	-0.026244918
3	0xbd98f872	-0.07469262
4	0xbd0d0fb8	-0.03443882
5	0xbc3ac903	-0.011400464
6	0xbd053220	-0.032518506
7	0xbddc6d25	-0.10763005
8	0xbd1150fb	-0.03547762
9	0x3d95b40e	0.07309733
10	0x3da56322	0.08075549
11	0x3dd75f3a	0.1051621
12	0x3ce7351c	0.028223567
13	0x3d8e8c31	0.06960333
14	0x3d79171e	0.060813062
15	0x3db29aba	0.08720918
16	0x3d094f9f	0.0335232
17	0x3d0d4b5a	0.03449569
18	0x3cc0725b	0.023492029
19	0x3d75cc94	0.060009554
20	0x3d74ba47	0.05974796
21	0xbcad74a5	-0.021173785
22	0xbd29ba07	-0.041437175
23	0x3d3f17dd	0.046653617
24	0xbc9c3497	-0.019068046
25	0xbda4c742	-0.08045818
26	0xbd9ad65a	-0.075604156
27	0x3d5c04d2	0.053715535
28	0x3c65ac41	0.014018119
29	0x3dd02c51	0.10164703
30	0xbb9b2a0e	-0.004735238
31	0x3bda1061	0.0066547845
32	0xbcc63270	-0.024193972
33	0xbd91f25f	-0.07126307
34	0xbbb0580e	-0.0053815907
35	0xbdc0e4f2	-0.09418668
36	0x3db49599	0.08817596
37	0x3de359eb	0.11101135
38	0x3dd13bc2	0.10216476
39	0x3d02a8e7	0.03189936
40	0x3d8b4b06	0.06801419
41	0x3d9af996	0.07567136
42	0xb86f83ab	-5.7104666e-05
43	0xbda28415	-0.07935349
44	0xbd8d071c	-0.06886122
45	0x3ce79e6a	0.02827378
46	0x3d1d3c3b	0.03838752
47	0x3db4f63b	0.08836027
48	0x3dcf2452	0.101143494
49	0x3ae84660	0.0017721169
50	0x3d09ada0	0.033612847
51	0x3d4b9f10	0.04971224
52	0x3d0b0fc1	0.03395057
53	0xbcbd0cdf	-0.023077426
54	0x3d9dc77c	0.07704064
55	0x3ca504b3	0.020143842
56	0xbb06317d	-0.0020476275
57	0x3db199ff	0.086719505
58	0x3b171ff3	0.0023059815
59	0xbc5f1d87	-0.01361788
60	0xbda265e9	-0.07929594
61	0xbdab82b0	-0.08374536
62	0xbdc267a3	-0.094924234
63	0xbccb5491	-0.024820598
64	0x3d81ed86	0.06344132
65	0xbc1b7f8d	-0.00949086
66	0x3db78bc3	0.08962204
67	0x3de46263	0.11151578
68	0x3e05e2b6	0.13074765
69	0x3d3bab38	0.045817584
70	0x3dc201df	0.09473013
71	0x3de8b286	0.11362176
72	0x3db87919	0.090074725
73	0x3cd80bd3	0.026372826
74	0x3d4ca1bc	0.04995893
75	0x3db5fe8d	0.08886442
76	0x3b369b1a	0.0027863444
77	0xbdf5bb7e	-0.11998652
78	0x3d40242f	0.046909507
79	0xbd87ae2c	-0.066250175
80	0xbd42a290	-0.047518313
81	0x3db1f6c7	0.08689647
82	0x3d8356a7	0.06413012
83	0xbb5cfc1e	-0.003371961
84	0x3cf13792	0.029445443
85	0x3ca8f971	0.020626755
86	0x3c4df4e5	0.012570594
87	0x3d924561	0.07142139
88	0x3bdfc55c	0.006828947
89	0x3b6cecb1	0.0036151821
90	0x3da67f3b	0.08129736
91	0x3dccf4bf	0.10007619
92	0x3e0c1567	0.1368004
93	0x3da84f6d	0.08218274
94	0x3db288b7	0.087174825
95	0x3d71f296	0.05906924
96	0x3d99e1fb	0.075138055
97	0x3dc5c202	0.09656145
98	0x3dd1d621	0.1024592
99	0x3dce91dc	0.10086414
100	0x3de80e67	0.11330872
101	0x3d9e0a6d	0.07716832
102	0x3dbe9445	0.09305624
103	0x3d663eb6	0.05621215
104	0x3dda3942	0.10655452
105	0x3e1d94f2	0.1538885
106	0x3d5f9903	0.054589283
107	0x3d4f3f3a	0.050597407
108	0x3d9bd893	0.07609668
109	0x3d69c4b7	0.057072368
110	0x3c8127ce	0.01576605
111	0x380c8707	3.3504355e-05
112	0x3d03b506	0.03215506
113	0x3cd7432d	0.02627715
114	0x3d81dda3	0.06341102
115	0xbcfbffad	-0.030761564
116	0xbc0462c9	-0.008080193
117	0x3d4138ed	0.04717343
118	0x3d27018f	0.04077297
119	0x3d51d4ce	0.051228337
120	0x3db6b84a	0.08921869
121	0xbcbe8fa6	-0.023261856
122	0xbcffb27f	-0.031213043
123	0x3cb1db35	0.021710971
124	0x3bfb903b	0.0076771057
125	0xbdb4486e	-0.08802877
126	0x3da74f0b	0.08169373
127	0x3d137bd1	0.036006752
128	0x3ce30b9b	0.027715495
129	0xbacdedda	-0.0015711144
130	0x3d77ee74	0.06053014
131	0x3d18ab46	0.037272714
132	0x3daa7680	0.08323383
133	0x3da36fc8	0.07980305
134	0x3d0540f3	0.032532644
135	0x3dd23688	0.10264307
136	0x3c129e11	0.008948819
137	0xba6b6796	-0.0008979974
138	0x3c88ff4f	0.016723303
139	0xbcdc96a4	-0.0269273
140	0xbd50a647	-0.050939824
141	0x3dab559e	0.083659396
142	0xbc89b58f	-0.016810207
143	0x3c525874	0.012838472
144	0x3e00d896	0.12582621
145	0x3de0e055	0.10980288
146	0x3cf9fc73	0.030515885
147	0x3c5c6562	0.013451906
148	0x3d21e8a9	0.039528523
149	0xbcd31ca5	-0.025770495
150	0xbd7e6c10	-0.062114775
151	0xbd8481a6	-0.06470041
152	0xbd5c1162	-0.053727515
153	0x3ca73eb8	0.020415649
154	0xbd11ecad	-0.035626102
155	0x3c3dbbaa	0.011580387
156	0x3ce4b805	0.027919779
157	0x3bce9082	0.006303848
158	0xbcf3629f	-0.029710112
159	0x3c350d44	0.011050526
160	0xbce991ba	-0.02851187
161	0xbded695a	-0.1159236
162	0x3dd6faef	0.104970805
163	0x3e02457c	0.12721819
164	0x3db4f48d	0.08835707
165	0x3d813d5a	0.0631053
166	0x3dc638b5	0.09678785
167	0x3dc35626	0.09537916
168	0xbd40c185	-0.047059555
169	0xbc5b49e7	-0.013384319
170	0xbc9b8400	-0.018983841
171	0xbd35703e	-0.044296496
172	0x3bea1a71	0.0071442653
173	0xbb87e254	-0.0041468535
174	0xbd871b3e	-0.06596993
175	0xbd242718	-0.040076345
176	0x3dad8c9e	0.08474086
177	0x3c4e2b3d	0.012583551
178	0xbd58582b	-0.05281846
179	0xbb450432	-0.0030062315
180	0xbd2533d6	-0.040332638
181	0x3c5d5fbe	0.013511596
182	0x3cc7e740	0.02440226
183	0x3d85d0a7	0.06533938
184	0x3d8279f5	0.06370918
185	0x3dac7ccd	0.08422241
186	0x3d804fbe	0.062652096
187	0x3dbf2d1e	0.09334777
188	0x3d418a56	0.047251068
189	0xbd48d46e	-0.049030714
190	0xbb640f86	-0.0034799292
191	0xbd0843c8	-0.033267766
192	0xbd0445d5	-0.03229316
193	0xbbe95046	-0.007120165
194	0x3c581e46	0.0131908115
195	0xbcdfc833	-0.027317142
196	0x3d82b7b1	0.063826926
197	0x3d974762	0.07386662
198	0x3d27191c	0.04079543
199	0x3dd3c441	0.10340167
200	0x3b93c80a	0.0045099305
201	0x3d668d78	0.05628726
202	0xbd291ae5	-0.041285414
203	0xbce18736	-0.027530294
204	0xbd1a32c6	-0.037646078
205	0xbc281dc7	-0.010261006
206	0x3c455f06	0.012046581
207	0x3dbdb861	0.09263683
208	0xbd6b2315	-0.057406504
209	0xbdcac714	-0.099012524
210	0xbd902c14	-0.07039657
211	0xbdf3724d	-0.118870355
212	0xbde559c1	-0.1119876
213	0xbd1f6a4f	-0.038919743
214	0xbdffdf56	-0.1249377
215	0xbe03047c	-0.1279468
216	0xbd7de491	-0.061985556
217	0xbbd159b6	-0.006388868
218	0xbddae29b	-0.10687753
219	0xbdfa3039	-0.12216229
220	0xbe11587b	-0.14193909
221	0xbdd36f9f	-0.103240244
222	0xbd05f7f2	-0.032707162
223	0xbcdcdd1c	-0.026960902
224	0xbd99764e	-0.07493268
225	0x3bcffa99	0.0063470122
226	0x3dc9d810	0.09855664
227	0x3dd408c2	0.10353233
228	0x3d587a22	0.05285085
229	0x3cdc8469	0.026918607
230	0x3e0528d9	0.13003863
231	0x3b1d37db	0.0023989591
232	0x3dc617c8	0.09672505
233	0x3dab3105	0.08358959
234	0x3d7836a9	0.060599003
235	0x3d3af15e	0.045640342
236	0x3dbbcdf9	0.091701455
237	0x3cd565a9	0.026049452
238	0x3dc54f2f	0.09634244
239	0x3d665afe	0.05623912
240	0x3e126fdd	0.14300485
241	0x3d4a3729	0.04936901
242	0x3d17e4d5	0.037083466
243	0x3df1db83	0.11809447
244	0x3d4f3be9	0.050594244
245	0x3db846b3	0.0899786
246	0x3dd5775a	0.10423155
247	0x3e04340b	0.12910478
248	0x3d8d74d3	0.06907048
249	0x3dcede1d	0.101009585
250	0x3d95ebe5	0.07320384
251	0xbbab712b	-0.0052319965
252	0x3db82132	0.089907065
253	0x3dc3ad34	0.0955452
254	0x3dc129ee	0.094318256
255	0x3ce6eb2e	0.028188314

feature_layers.4.conv.bias f4 [32]
0	0x3bc9d708	0.006159667
1	0x3e0006ef	0.12502645
2	0x3d2cd917	0.04219922
3	0x3de44257	0.11145466
4	0x3c475a97	0.012167594
5	0x3d7795d4	0.06044562
6	0x3dc0bc46	0.0941091
7	0x3dd19690	0.10233796
8	0x3db927b7	0.09040778
9	0x3c4a3964	0.012342785
10	0x3e278aee	0.16361591
11	0x3dc39ab8	0.09550995
12	0x3d10bfab	0.03533904
13	0x3dfc4359	0.12317533
14	0x3cd1e127	0.025620056
15	0x3dd1abd7	0.10237854
16	0x3c7d4bab	0.015459935
17	0x3e24aad8	0.16080797
18	0x3cb7afcc	0.022422694
19	0x3e256df4	0.16155225
20	0x3d3771b5	0.044786174
21	0x3e298d38	0.16557777
22	0x3d870fc5	0.06594805
23	0x3d84a4c8	0.06476742
24	0x3c8a2b0c	0.01686623
25	0x3c798e1d	0.015231636
26	0x3dea896a	0.11451991
27	0x3d5519b1	0.052026454
28	0x3d659c0d	0.056057025
29	0x3decf1a5	0.115695275
30	0x3d86b589	0.06577594
31	0x3de47846	0.11155753
